src/routes/model.onnx (onnx, 5008 bytes, 8 tensors)

fc1.weight f4 [64, 8]
0.004060967 -0.016236024 0.02027953 0.0049653216 -0.012692242 -0.0070189987 0.004464942 0.011981057
-0.0167492 0.008822356 -0.0027731624 -0.018293343 0.00050334027 -0.012172429 0.011374926 0.01792102
0.0019499649 -0.0056224223 0.018152837 0.014246369 0.0077281604 0.007039128 -0.021369431 0.009103027
0.013613295 0.0021973676 -0.0055057104 0.0071611316 0.011456098 -0.010886607 0.003127715 0.016305108
0.018553529 0.0072561395 0.006500241 0.0031635216 0.013426242 0.0052068443 -0.0029189985 -0.013872426
0.0055846577 0.020852597 -0.018080782 -0.015459817 -0.0072897375 -0.014865693 -0.0032689983 -0.004555626
-0.011809094 0.012365993 0.009702803 -0.012034413 0.013998495 -0.014620312 0.020271601 -0.004187253
0.0067731733 -0.0026729878 -0.01308551 -0.017328104 0.015158715 0.0014578435 -0.021089764 0.020943606
-0.003867096 -0.017796304 0.010687858 0.007227646 0.0052436376 0.007412564 0.019042876 0.01731427
-0.015403567 -0.018509291 -0.0014315788 -0.01613785 -0.0024563253 0.0041556084 -0.0011271271 0.017512046
-0.01464349 0.0036507554 0.0029079593 -0.007280077 0.01048177 -0.0026011672 0.0058021992 0.0036703104
0.015649026 -0.005064312 0.007407441 0.010945793 0.014711308 0.0082163 0.012752823 0.0102826925
0.010408659 -0.008274983 -0.0071135014 -0.0007477582 -0.0087666465 0.014708365 -0.0021680146 -0.007927529
0.0017751209 0.016588032 -0.016610688 0.014508635 0.010437709 0.019180672 -0.015382337 -0.0040366245
0.005721252 -0.00680433 0.018722996 -0.011594952 0.009853481 -0.011374665 0.018989846 -0.002127214
-0.0039882595 0.013647083 0.010404327 0.016139837 -0.015097324 0.0153389275 0.0025909678 0.0018807949
0.017138999 0.0026742627 0.008726769 -0.0038359005 -0.0015433494 0.016946321 0.008988245 0.016910616
-0.012916513 -0.01894552 0.0029761172 -0.0026978503 0.020680116 -0.008671311 -0.0018737476 -0.0053371773
0.004349863 -0.009528745 -0.009406323 0.0071417904 0.0029508309 -0.011231029 -0.011165376 0.017849423
0.010901349 -0.015642527 0.006220388 -0.013262016 -0.019002823 1.1457393e-05 0.016514555 -0.012040698
-0.020908106 0.014205421 -0.0040200045 -0.011300308 0.014951504 0.009599619 0.011762167 -0.0093910545
-0.014139345 -0.014906186 -0.010042002 0.009604646 -0.003887779 0.00972817 -0.018410975 0.016103666
-0.005773725 0.005607701 0.013693468 -0.012124088 0.0012464717 0.0022481391 -0.009618088 0.013899356
-0.011533513 0.012701495 -0.00382051 -0.005117026 0.0033369253 0.0076085334 -0.016226942 -0.007628881
0.019776437 -0.015155024 0.00036429157 0.0033626263 0.00457403 0.002473894 0.013328052 -0.018913347
0.0007035108 0.020331662 0.002158556 -0.017576138 -0.002112451 0.011821867 -0.021172572 0.0007490196
-0.0035060826 0.000475303 -0.0025470038 -0.004641991 -0.01094864 0.0039532445 -0.003659472 0.018710515
0.005505887 -0.011204933 0.015495654 -0.0024130568 0.0022276035 -0.0061732577 0.010098969 -0.007739057
0.010297035 0.017772987 -0.003572037 0.010248558 0.0031959321 0.0062079513 -0.0073173046 -0.0120204985
-0.007550294 0.00756524 0.0069728717 0.0037866605 0.0075192847 0.011508031 -0.009678174 0.017652199
-0.0049139205 -0.016256843 -0.0024807288 0.0057154987 -0.02021397 -0.007844688 0.01512697 0.011189467
0.0072276103 0.004844303 -0.017467909 -0.014558665 0.0075958157 -0.013436002 0.02009269 0.02035395
00000000: dc11 853b 6901 85bc 4221 a63c 23b4 a23b
00000010: 1ff3 4fbc a1ff e5bb a64e 923b 324c 443c
00000020: 9e35 89bc a58b 103c f2bd 35bb ecdb 95bc
00000030: 98f2 033a de6e 47bc e65d 3a3c 1acf 923c
00000040: f795 ff3a 4c3c b8bb 42b5 943c 9a69 693c
00000050: 823c fd3b 7ca8 e63b f20e afbc dd24 153c
00000060: 4c0a 5f3c b601 103b 3f69 b4bb eda7 ea3b
00000070: 5cb2 3b3c bd5d 32bc 5afa 4c3b 4a92 853c
00000080: 92fd 973c e9c4 ed3b f9ff d43b 1653 4f3b
00000090: bef9 5b3c 2d9e aa3b ab4c 3fbb 2c49 63bc
000000a0: 81ff b63b 11d3 aa3c 261e 94bc 2c4b 7dbc
000000b0: c0de eebb 3c8f 73bc b13c 56bb 5c47 95bb
000000c0: ee7a 41bc bc9a 4a3c 81f8 1e3c fd2b 45bc
000000d0: f259 653c 088a 6fbc a110 a63c 3935 89bb
000000e0: 7ff1 dd3b 4b2d 2fbb 9b64 56bc abf3 8dbc
000000f0: 425c 783c 1c15 bf3a 71c4 acbc ed91 ab3c
00000100: 1b6f 7dbb 8ec9 91bc 201c 2f3c e4d5 ec3b
00000110: d2d2 ab3b 18e5 f23b ceff 9b3c a8d6 8d3c
00000120: 3e5f 7cbc cca0 97bc d0a3 bbba 8633 84bc
00000130: 4dfa 20bb c52b 883b 1cbc 93ba 6c75 8f3c
00000140: 40eb 6fbc 8341 6f3b 7693 3e3b b68d eebb
00000150: bbbb 2b3c 5878 2abb 6020 be3b 9789 703b
00000160: 6332 803c 87f2 a5bb 1eba f23b fc55 333c
00000170: b307 713c a99d 063c 37f1 503c bd78 283c
00000180: 1589 2a3c cb93 07bc 6018 e9bb 3405 44ba
00000190: fba1 0fbc 5bfb 703c 4015 0ebb 77e2 01bc
000001a0: 2cab e83a a0e3 873c 2313 88bc a0b5 6d3c
000001b0: ed02 2b3c c920 9d3c 3306 7cbc a945 84bb
000001c0: 5779 bb3b dbf6 debb f860 993c c1f8 3dbc
000001d0: 7f70 213c ce5c 3abc 9890 9b3c bb68 0bbb
000001e0: f2af 82bb 0498 5f3c e976 2a3c b137 843c
000001f0: c45a 77bc 2050 7b3c 3acd 293b 0185 f63a
00000200: 1667 8c3c af42 2f3b b9fa 0e3c bb63 7bbb
00000210: 364a caba 03d3 8a3c 6f43 133c 2288 8a3c
00000220: c89f 53bc a333 9bbc f60a 433b 6bce 30bb
00000230: 5969 a93c 1d12 0ebc 8998 f5ba 7de3 aebb
00000240: 4c89 8e3b 741e 1cbc fa1c 1abc ae05 ea3b
00000250: ba62 413b 5a02 38bc fbee 36bc f438 923c
00000260: 929b 323c c224 80bc 66d4 cb3b ed48 59bc
00000270: cfab 9bbc 2139 4037 8849 873c 5946 45bc
00000280: 7a47 abbc dbbd 683c 3eba 83bb ed24 39bc
00000290: 27f7 743c b847 1d3c 1bb6 403c f0dc 19bc
000002a0: b6a8 67bc 1339 74bc 3687 24bc ce5c 1d3c
000002b0: 1cca 7ebb e762 1f3c 9dd2 96bc d6eb 833c
000002c0: 8431 bdbb cec0 b73b 915a 603c 1ca4 46bc
000002d0: a660 a33a 8455 133b 2f95 1dbc 20ba 633c
000002e0: 0ff7 3cbc ee19 503c 8661 7abb baac a7bb
000002f0: 51b0 5a3b 0151 f93b 5dee 84bc b1fb f9bb
00000300: 3202 a23c c74c 78bc 63fe be39 825f 5c3b
00000310: bfe1 953b 0e21 223b e75d 5a3c 2af0 9abc
00000320: d06b 383a 968e a63c 8f76 0d3b d5fb 8fbc
00000330: 0c71 0abb 81b0 413c 1a72 adbc db59 443a
00000340: 4ec6 65bb 1732 f939 a2eb 26bb d81b 98bb
00000350: ed61 33bc 388a 813b c1d3 6fbb cb46 993c
00000360: ba6a b43b e594 37bc 7ce1 7d3c 6024 1ebb
00000370: fcfc 113b 0a49 cabb 2576 253c ea97 fdbb
00000380: e5b4 283c a898 913c d618 6abb 91e9 273c
00000390: d872 513b 126c cb3b 00c6 efbb a0f1 44bc
000003a0: 7568 f7bb d5e5 f73b b07c e43b 9f29 783b
000003b0: 5564 f63b 2e8c 3c3c 3491 1ebc 589b 903c
000003c0: f404 a1bb 122d 85bc b993 22bb 1449 bb3b
000003d0: c597 a5bc 0287 00bc 1cd7 773c 0754 373c
000003e0: 97d5 ec3b f5bc 9e3b dc18 8fbc 7887 6ebc
000003f0: 52e6 f83b ad22 5cbc 6d99 a43c 54bd a63c

fc1.bias f4 [64]
0.005026495 0.0009482784 0.008818301 -0.016020592 0.011897144 0.021114936 -0.0007689197 -0.00539417
-0.016067283 -0.02004988 0.0038973533 -0.01117868 -0.0039325473 -0.013842429 -0.0006600887 0.011343084
6.891191e-05 -0.005192057 0.0031268285 -0.0018759802 0.012436399 0.019799694 -0.0057309475 -0.002134025
0.017721144 0.01639635 0.013453263 -0.02049276 -0.0031217285 -0.008783237 -0.015526408 -0.0042442656
-0.019018369 -0.01319152 0.017414426 0.011620695 0.019866696 -0.016557373 0.0048127123 -0.0072464054
-0.0012432956 0.0084330505 -0.019872382 -0.0016860281 -0.004093327 0.0129854735 0.007192266 0.019832594
0.008364251 0.0062163877 0.0009902192 -0.015027095 0.017663985 -0.018154286 0.015980432 -0.008203753
-0.016052308 0.007432472 0.0015594201 0.017912159 0.013323078 0.020109337 -0.010469855 0.016357819
00000000: 4cb5 a43b e395 783a a37a 103c 9e3d 83bc
00000010: 3dec 423c 3bf9 ac3c 5491 49ba 94c1 b0bb
00000020: 899f 83bc a53f a4bc bd6a 7f3b c826 37bc
00000030: 99dc 80bb 5bcb 62bc ce09 2dba 58d8 393c
00000040: cd84 9038 2222 aabb 7aeb 4c3b 73e3 f5ba
00000050: 0ac2 4b3c f832 a23c acca bbbb 00db 0bbb
00000060: ef2b 913c a351 863c 136b 5c3c 6fe0 a7bc
00000070: ea95 4cbb 91e7 0fbc 7a62 7ebc 7b13 8bbb
00000080: 69cc 9bbc 3f21 58bc b3a8 8e3c ba64 3e3c
00000090: 7bbf a23c 54a3 87bc f5b3 9d3b 4173 edbb
000000a0: 14f6 a2ba c72a 0a3c 68cb a2bc b7fd dcba
000000b0: 5121 86bb 06c1 543c 1aad eb3b f777 a23c
000000c0: 360a 093c d7b2 cb3b 3eca 813a 3434 76bc
000000d0: 10b4 903c 4cb8 94bc 65e9 823c 0969 06bc
000000e0: 2180 83bc 188c f33b 7565 cc3a 85bc 923c
000000f0: 0a49 5a3c 56bc a43c c189 2bbc d500 863c

fc2.weight f4 [2, 64]
-0.099824004 0.10205236 0.13288555 -0.018265704 0.21454576 0.019172011 -0.2063877 0.2250798
-0.07657233 0.009526093 0.13405383 -0.017800685 0.034087982 -0.058170464 0.1613282 -0.16508162
0.023637103 -0.08640233 -0.19799066 0.08568055 -0.055689074 0.058950644 0.16621488 0.06562876
-0.11973041 -0.1285902 0.034361266 -0.0728535 0.108129546 -0.02299212 -0.00743381 0.14271042
-0.12424543 -0.08970122 -0.100048326 -0.10613643 0.029854694 -0.16359554 -0.10635663 0.0648668
-0.053029913 0.045849547 -0.071674876 -0.12645467 -0.05795175 0.046640016 0.052571874 -0.039055593
0.0104578445 0.041402373 0.040584214 -0.11308462 0.08779247 -0.17850105 -0.17353518 -0.034820866
-0.05002485 -0.09516502 0.1884348 -0.042087354 -0.016028024 0.022070227 0.042344198 -0.21042596
0.10374837 -0.099600546 -0.12672967 0.008764729 -0.21405953 -0.023831656 0.20762774 -0.22495739
0.077722944 -0.0057814172 -0.12732756 0.016006798 -0.028447675 0.045526862 -0.15933765 0.16915934
-0.015554048 0.08521637 0.19425288 -0.08565636 0.060046162 -0.064364344 -0.16491619 -0.061584648
0.119695514 0.13329127 -0.037846252 0.08208006 -0.11140417 0.030774372 0.0027371086 -0.14416073
0.12602788 0.09777587 0.093013294 0.10334077 -0.023642648 0.16276914 0.10860469 -0.057198204
0.0542324 -0.045040704 0.06687842 0.124849126 0.05167674 -0.043529954 -0.06471435 0.04896361
-0.011915949 -0.043993022 -0.034334887 0.11105105 -0.09429085 0.17312461 0.17674546 0.035528924
0.056360327 0.08866791 -0.1854718 0.029683495 0.021459334 -0.015896931 -0.049293604 0.20694894
00000000: 8770 ccbd d400 d13d 2613 083e f5a1 95bc
00000010: e2b1 5b3e 9f0e 9d3c 4c57 53be 527b 663e
00000020: f4d1 9cbd 5413 1c3c 6845 093e bed2 91bc
00000030: d79f 0b3d 2744 6ebd 3833 253e 280b 29be
00000040: 99a2 c13c b4f3 b0bd 10be 4abe 4979 af3d
00000050: 3a1a 64bd 3b76 713d 3c34 2a3e 5f68 863d
00000060: 3835 f5bd 26ad 03be 66be 0c3d 3734 95bd
00000070: 0673 dd3d f859 bcbc 5197 f3bb ae22 123e
00000080: 6374 febd 46b5 b7bd 23e6 ccbd 0e5e d9bd
00000090: d591 f43c 9785 27be 81d1 d9bd e3d8 843d
000000a0: e535 59bd bccc 3b3d 47ca 92bd 557d 01be
000000b0: d05e 6dbd 9a09 3f3d 9b55 573d c2f8 1fbd
000000c0: 6157 2b3c 8995 293d a23b 263d e998 e7bd
000000d0: 8acc b33d fbc8 36be 35b3 31be 53a0 0ebd
000000e0: dbe6 4cbd e1e5 c2bd 0df5 403e ca63 2cbd
000000f0: 344d 83bc 9fcc b43c 1c71 2d3d e779 57be
00000100: 077a d43d 5ffb cbbd 6cc5 01be f099 0f3c
00000110: 6c32 5bbe 9b3a c3bc 5e9c 543e 3b5b 66be
00000120: 352d 9f3d 0b72 bdbb 2862 02be b020 833c
00000130: 190b e9bc 607a 3a3d 6929 23be 1b38 2d3e
00000140: 68d6 7ebc ec85 ae3d 3aea 463e 9a6c afbd
00000150: f7f2 753d 74d1 83bd cadf 28be 2f40 7cbd
00000160: ec22 f53d 827d 083e ac04 1bbd 9719 a83d
00000170: df27 e4bd 891a fc3c 1061 333b df9e 13be
00000180: 740d 013e b73e c83d c17d be3d 53a4 d33d
00000190: 3aae c1bc f4ac 263e 236c de3d aa48 6abd
000001a0: cb22 5e3d 9a7c 38bd 8ef7 883d e6b0 ff3d
000001b0: fdaa 533d 774c 32bd f588 84bd 118e 483d
000001c0: 1d3b 43bc 0732 34bd bda2 0cbd bc6e e33d
000001d0: 901b c1bd 9447 313e c3fc 343e c786 113d
000001e0: 16da 663d 8597 b53d 52ec 3dbe cd2a f33c
000001f0: 7ccb af3c 483a 82bc 17e8 49bd 6cea 533e

fc2.bias f4 [2]
0.768313 -0.7730859
00000000: 29b0 443f f5e8 45bf

batch_norm1.weight f4 [64]
0.059441373 0.05955167 0.059212614 0.059672616 0.058884423 0.05961814 0.05865851 0.0587344
0.059367675 0.059729934 0.059805255 0.059703372 0.059632048 0.059750915 0.059791777 0.059191532
0.059730045 0.05941826 0.059092082 0.059498385 0.059781432 0.05972095 0.058529325 0.05951875
0.059128616 0.060080495 0.059653945 0.05965534 0.059375428 0.059734937 0.05967285 0.059597466
0.058925416 0.059653297 0.059271023 0.059045147 0.05969184 0.058476087 0.059379794 0.059780255
0.059782945 0.05983453 0.059463363 0.059555735 0.05957712 0.059649374 0.059808742 0.059797727
0.059732903 0.05964445 0.059764598 0.059651736 0.05959564 0.059931967 0.05880576 0.059428122
0.059871852 0.05975065 0.059566185 0.05973597 0.059741702 0.059738483 0.05986379 0.05928717
00000000: cc78 733d 74ec 733d ed88 723d 466b 743d
00000010: cb30 713d 2732 743d e843 703d 7b93 703d
00000020: 852b 733d 60a7 743d 5bf6 743d 868b 743d
00000030: bc40 743d 60bd 743d 39e8 743d d272 723d
00000040: 7ea7 743d 9060 733d 8a0a 723d 94b4 733d
00000050: 60dd 743d f49d 743d 72bc 6f3d efc9 733d
00000060: d930 723d f716 763d b257 743d 2859 743d
00000070: a633 733d 9fac 743d 856b 743d 791c 743d
00000080: c75b 713d 0457 743d 2cc6 723d 53d9 713d
00000090: 6e7f 743d 9f84 6f3d 3a38 733d 24dc 743d
000000a0: f6de 743d 0d15 753d db8f 733d b7f0 733d
000000b0: 2307 743d e752 743d 03fa 743d 76ee 743d
000000c0: 7daa 743d bd4d 743d b9cb 743d 6155 743d
000000d0: 8f1a 743d 397b 753d 4fde 703d e76a 733d
000000e0: 303c 753d 19bd 743d acfb 733d b4ad 743d
000000f0: b7b3 743d 57b0 743d bc33 753d 1bd7 723d

batch_norm1.bias f4 [64]
-0.14400001 0.14262474 0.18365753 -0.019242462 0.30312157 0.030505314 -0.2928632 0.31828523
-0.10920285 0.010749575 0.18476258 -0.02392071 0.044329487 -0.073292054 0.22668509 -0.23640706
0.027707318 -0.12141175 -0.27741873 0.1212346 -0.08174841 0.08718931 0.23429756 0.09000122
-0.1694147 -0.1850582 0.05111232 -0.10952947 0.15528698 -0.038005535 -0.0073218187 0.20284797
-0.17713052 -0.13256972 -0.1366175 -0.14826863 0.03787004 -0.23098321 -0.15207668 0.08626256
-0.07577616 0.064159535 -0.09809051 -0.1777147 -0.07754981 0.06381129 0.082875274 -0.062152307
0.015797947 0.060440104 0.052933175 -0.15846348 0.1287993 -0.24854888 -0.2478181 -0.049983304
-0.0751068 -0.12994523 0.26436207 -0.050729953 -0.0264636 0.026823634 0.06462336 -0.29515788
00000000: bd74 13be 380c 123e b810 3c3e 5ea2 9dbc
00000010: c032 9b3e 48e6 f93c 2af2 95be 48f6 a23e
00000020: bea5 dfbd fc1e 303c 6732 3d3e 5df5 c3bc
00000030: d692 353d 251a 96bd 2320 683e b114 72be
00000040: 75fa e23c b9a6 f8bd d409 8ebe d949 f83d
00000050: b66b a7bd 4f90 b23d b3eb 6f3e 8f52 b83d
00000060: 0c7b 2dbe e67f 3dbe 275b 513d fd50 e0bd
00000070: 8d03 1f3e b1ab 1bbd deeb efbb 61b7 4f3e
00000080: b461 35be 5bc0 07be 75e5 0bbe bbd3 17be
00000090: 9d1d 1b3d dd86 6cbe fdb9 1bbe 6daa b03d
000000a0: 8830 9bbd 1366 833d ade3 c8bd d8fa 35be
000000b0: 6fd2 9ebd 7eaf 823d 83ba a93d 6b93 7ebd
000000c0: b26a 813c 0b90 773d 75d0 583d 4044 22be
000000d0: f7e3 033e 9983 7ebe 07c4 7dbe 4bbb 4cbd
000000e0: 98d1 99bd 5d10 05be 775a 873e 36ca 4fbd
000000f0: 31ca d8bc 3dbd db3c 4159 843d ef1e 97be

batch_norm1.running_mean f4 [64]
0.0037415854 -0.00023782431 0.010372924 -0.01519615 0.012300271 0.022203347 -0.0011976782 -0.0059758415
-0.018581126 -0.02279037 0.0037457058 -0.01255871 -0.005499965 -0.011468552 -0.0029823813 0.011547714
-0.0035890322 -0.004302424 0.004906143 -0.005714035 0.011924133 0.021206427 -0.006943272 -0.0008546549
0.016548794 0.015854277 0.01243936 -0.021974023 -0.0012676074 -0.008707641 -0.016741687 -0.0059928624
-0.018514229 -0.014677247 0.01598854 0.011418013 0.019133283 -0.017422184 0.0077683423 -0.005999368
-0.0026569993 0.010351297 -0.01994459 -0.00362439 -0.007716786 0.010152656 0.0075407247 0.020546755
0.010783643 0.005399711 0.0012832119 -0.017595105 0.016028492 -0.018354058 0.015938835 -0.007659506
-0.014341678 0.0075781634 0.0013000023 0.018542528 0.011536926 0.02000525 -0.009604994 0.017591419
00000000: 6335 753b 7a60 79b9 32f3 293c 46f9 78bc
00000010: 1387 493c cbe3 b53c 69fb 9cba fed0 c3bb
00000020: 7237 98bc dfb2 babc 847a 753b 0cc3 4dbc
00000030: 0d39 b4bb 98e6 3bbc 0e74 43bb 9f32 3d3c
00000040: f835 6bbb 59fb 8cbb b6c3 a03b cd3c bbbb
00000050: 705d 433c 1ab9 ad3c 6384 e3bb eb0a 60ba
00000060: 5691 873c d4e0 813c 75ce 4b3c de02 b4bc
00000070: d925 a6ba 7eaa 0ebc dd25 89bc c65f c4bb
00000080: 27ab 97bc d678 70bc 66fa 823c 9e12 3b3c
00000090: 67bd 9c3c f8b8 8ebc 948d fe3b 5996 c4bb
000000a0: 0d21 2ebb 7d98 293c d662 a3bc 2d87 6dbb
000000b0: 18dd fcbb 5357 263c 2f18 f73b ab51 a83c
000000c0: e1ad 303c 0ff0 b03b 7231 a83a 9c23 90bc
000000d0: 2f4e 833c 405b 96bc 2992 823c 98fc fabb
000000e0: 5bf9 6abc 3e52 f83b d764 aa3a 80e6 973c
000000f0: 6005 3d3c 0de2 a33c 445e 1dbc e11b 903c

batch_norm1.running_var f4 [64]
0.0009607103 0.0005776671 0.0007836784 0.0020768887 0.0011037585 0.0013266739 0.0003998166 0.0012676663
0.001992679 0.0018518069 0.0001757057 0.0018473109 0.00042117163 0.002046794 0.0010814854 0.0005523144
0.0015839307 0.00036325693 0.0011788821 0.0026149487 0.00067287293 0.00047911578 0.00029657423 0.00047050838
0.0006107598 0.00034575112 0.00026351065 0.0006093739 0.0013331112 0.0005220905 0.00115337 0.00082366273
0.0006971916 0.00029795372 0.0006378371 0.0017951966 0.00176158 0.00040344486 0.0015582395 0.0016873017
0.000981108 0.0007419216 0.00046063558 0.0006980041 0.0024846091 0.0024134705 0.00084024883 0.0005621909
0.0010858772 0.0017752767 0.00082533533 0.0009138988 0.0023630064 0.00037582862 0.00065751886 0.0009110047
0.0005350867 0.0022088469 0.0003135473 0.00032244145 0.0007288939 0.00040999206 0.00029565635 0.0015736552
00000000: 2dd8 7b3a 956e 173a c46f 4d3a 691c 083b
00000010: fdab 903a cae3 ad3a 7a9e d139 d327 a63a
00000020: 9b97 023b 54b8 f23a a43d 3839 7821 f23a
00000030: b3d0 dc39 8123 063b a1c0 8d3a 31c9 103a
00000040: e59b cf3a 8573 be39 b884 9a3a 8f5f 2b3b
00000050: bd63 303a d531 fb39 857d 9b39 91ae f639
00000060: 651b 203a ee45 b539 cd27 8a39 64be 1f3a
00000070: cabb ae3a e6dc 083a ad2c 973a 12eb 573a
00000080: bcc3 363a ac36 9c39 8634 273a cd4c eb3a
00000090: d1e4 e63a 7485 d339 d73d cc3a 7328 dd3a
000000a0: 8698 803a 847d 423a 7681 f139 43fa 363a
000000b0: d3d4 223b 512b 1e3b 2544 5c3a fe5f 133a
000000c0: fe53 8e3a 67b0 e83a 515b 583a b692 6f3a
000000d0: abdc 1a3b dd0a c539 585d 2c3a 7ed0 6e3a
000000e0: 1045 0c3a 4dc2 103b 9b63 a439 5c0d a939
000000f0: 3e13 3f3a 34f4 d639 5302 9b39 1b43 ce3a
